assets/model.tflite (tflite, 60860 bytes, 3 tensors)

arith.constant f4 [5, 64]
00000000: f005 2b3d 20ac 5dbd a07f 6d3e 60bc 453c
00000010: d886 90be 688c 6cbd 64ce 273e 20d5 7b3e
00000020: f208 873e 3862 a33d 38a7 713e 0ea3 33be
00000030: 56e8 d8bd 3cfb 8bbe 90e2 7fbe 4d2e 08be
00000040: d81e 2f3d 9d6b 7abe 98ad 0e3e 2464 23be
00000050: 800b c2bb f47b b6bd 5644 393e 50e4 ffbc
00000060: 88f9 873e e4cd 90bd ce7b 8bbe 6473 17be
00000070: 28f4 b73d 5a3c 1d3e 5c91 9c3d 4803 51bd
00000080: f6e9 3abe 9ccf 773e 00ef 73bc 90e6 6abd
00000090: 7cd7 853d c919 8bbe 9aa8 ecbd 00cd a2bb
000000a0: fc1e a63d bcbd 2c3e 2abd 76be a284 443e
000000b0: dc9d 4fbe c042 64bc daa2 6bbe 8f64 96be
000000c0: 84c7 313e d00d 293d beac 223e 5054 9dbd
000000d0: 967a e6bd a4c2 8c3e 0b14 27be a0cc 533e
000000e0: e02d 4a3d 000e 0f3b b045 14bd f81e 93be
000000f0: d935 18be 4c64 75be 7f5e 74be 5425 5f3e
00000100: 9aba 0fbe 20f7 a83d f068 773e b08f 1bbd
00000110: 30de 353e d87c 07bd a06f 5fbe a4ae 853d
00000120: f014 8e3e c668 7bbe d0a7 633d 0635 80bd
00000130: c008 a5bc 8ca9 743e 5014 2bbd dcc7 83bd
00000140: ffc3 23be 94ee b9bd 7c8d b83d d4ee 27be
00000150: 5ad3 8b3e 40ee 24be 172e 18be b9db 82be
00000160: c0c2 f33d 60ee 5ebe 1587 89be 9937 56be
00000170: c430 253e f42f 7fbe 5026 cebc 46d8 18be
00000180: 62e5 b4bd d0dd 063d cea8 7ebe d405 3cbe
00000190: cc43 6b3e 0040 4338 8cb4 813d d88c 0c3d
000001a0: e0b9 febc 43b0 01be 72f3 093e 6ecd 2d3e
000001b0: 1be6 08be 8cfc 80be eea6 dcbd 0b74 40be
000001c0: c01f 22be c5f7 35be 0012 27bb 2e26 813e
000001d0: 3c08 83be c01d e83c 4cab fdbd e0dc a2bc
000001e0: 888b 353e c067 de3c 5560 34be baa4 18be
000001f0: a215 ffbd 55c8 88be 720b 803e bae1 5fbe
00000200: d453 95bd 2038 633d 2049 b33d b084 e03c
00000210: 84e7 69be 3e3a c5bd c48f 933d c08b 8a3c
00000220: dc90 62bd a8f8 a03d ee36 8b3e b06e 303e
00000230: 92e2 283e c4bd 4cbd 08b1 703e fe6e 3f3e
00000240: 58e8 2bbe 4593 77be 0230 873e cdfd 42be
00000250: 78f4 193e 3000 83bd cd82 94be bf71 3ebe
00000260: f2a8 143e 40ea 08be 3e7c 7ebe 60fc 373c
00000270: f871 f7bd 8863 813d 1024 2dbd cc72 9c3d
00000280: 1079 bbbc 7e29 c9bd 66f1 943e 0c50 81be
00000290: e89c 5a3d 5f35 47be da00 40be f92d 82be
000002a0: 9d70 61be 481d 14bd 04e0 8c3e a329 5dbe
000002b0: 924d 043e 6c5b d63d 48e3 9f3d c851 8abe
000002c0: bcf0 173e f595 73be 7459 51be d842 82be
000002d0: f6da 233e 10ab a33d 56b0 013e 9c1b 7d3e
000002e0: 8553 01be 40d7 01bd 1e62 273e b0b8 6d3e
000002f0: 5a8e 76be 2207 6bbe da99 1dbe ac06 5d3e
00000300: fac7 69be 9099 593e 0c06 e1bd 080a 953e
00000310: aca6 65be f8c8 c4bd 22a7 483e d892 9a3d
00000320: 467f 8a3e c843 56be ccb0 63be 04ea 87bd
00000330: 4092 8ebc d0d0 8f3d 6a90 8e3e a0ab cabc
00000340: 3c48 243e 7426 78be dba1 2ebe ec93 5a3e
00000350: 783a 09bd 3045 9ebc e68e 1ebe 27d3 91be
00000360: 1a1c a7bd baa5 903e 2807 4abe 7cff 123e
00000370: cf51 05be 6656 26be f01e 15bd b063 6b3d
00000380: b08c a3bd 9d51 74be d408 df3d b088 533e
00000390: a078 fb3d f4d5 c43d 0443 803e 2624 1e3e
000003a0: c47f 1a3e 20a5 ef3c b458 913e d658 cfbd
000003b0: 9216 353e b29e 303e e21b b8bd ba8f 5bbe
000003c0: c009 3cbe 70d7 a4bd 1092 14bd 6ac9 fdbd
000003d0: 4072 ed3b f837 f33d 0291 42be 467b e9bd
000003e0: 1a13 93be 1c4d f53d d420 f0bd b75b 80be
000003f0: e2db d6bd 009f 30bd 161a 8d3e 6481 36be
0.04175371 -0.05411923 0.23193216 0.012068838 -0.28227878 -0.05775109 0.16387326 0.2459302
0.26374012 0.07977718 0.23598945 -0.17542669 -0.105911896 -0.27340114 -0.2498877 -0.13298912
0.042754024 -0.24455114 0.13933408 -0.1595617 -0.005921781 -0.08910361 0.18092474 -0.031236798
0.26557565 -0.070705205 -0.27242893 -0.14790112 0.08982116 0.15355054 0.076449126 -0.05102852
-0.18253312 0.2420029 -0.014888525 -0.057348788 0.06535241 -0.2716811 -0.11555596 -0.0049682856
0.081113786 0.16869253 -0.24095598 0.1919122 -0.20275062 -0.01393193 -0.23011342 -0.29373595
0.17361265 0.04127294 0.15886208 -0.07682097 -0.1125385 0.2749225 -0.1631624 0.20683527
0.049360156 0.0021828413 -0.03619927 -0.28734565 -0.14864291 -0.23964041 -0.23864172 0.21791583
-0.14036027 0.0825026 0.24161124 -0.037978828 0.17760539 -0.033078045 -0.21819925 0.06527451
0.2775035 -0.24551687 0.05557996 -0.062601134 -0.020145774 0.23892802 -0.04176742 -0.064346045
-0.15992735 -0.09078708 0.09011361 -0.163997 0.27309686 -0.1610651 -0.14861332 -0.2555826
0.1190238 -0.2177062 -0.26860872 -0.20919646 0.16131884 -0.24920636 -0.025164753 -0.14926252
-0.08832814 0.03292638 -0.24869081 -0.18361598 0.22975081 4.6551228e-05 0.06333265 0.034314007
-0.031094491 -0.12664895 0.13471773 0.16972896 -0.13369028 -0.25192678 -0.10774027 -0.18794267
-0.15832424 -0.17770298 -0.0025492907 0.2522444 -0.2559222 0.028334498 -0.12386188 -0.019880712
0.17729008 0.027149081 -0.17614873 -0.14906588 -0.12455298 -0.2671534 0.25008732 -0.21863452
-0.072913796 0.055473447 0.08754182 0.02740702 -0.22842222 -0.096302494 0.072051555 0.016912341
-0.05531393 0.078599274 0.27190346 0.17229724 0.1649268 -0.049985662 0.23505032 0.18694684
-0.16787851 -0.24177273 0.26403815 -0.1904213 0.15034664 -0.0639652 -0.29006043 -0.18598078
0.14517573 -0.1337061 -0.24852082 0.0112296045 -0.12082285 0.06317812 -0.04227072 0.07639083
-0.022884876 -0.09822367 0.29090422 -0.25256383 0.053372294 -0.19453953 -0.18750325 -0.254257
-0.22015615 -0.036160737 0.2751466 -0.21597914 0.12920216 0.10466656 0.07807022 -0.2701552
0.14837927 -0.23787673 -0.2044428 -0.25441623 0.16001496 0.07991612 0.12664923 0.24717563
-0.12629516 -0.03169942 0.16346022 0.23214984 -0.2407774 -0.2295194 -0.15390721 0.21584576
-0.22830191 0.21249986 -0.109874815 0.29109216 -0.22426862 -0.09608644 0.19595006 0.075475395
0.27050227 -0.20924294 -0.22235411 -0.06636432 -0.017403722 0.0702225 0.27844554 -0.02474004
0.1604318 -0.24233419 -0.1705393 0.2134549 -0.033503026 -0.0193201 -0.15484199 -0.2848141
-0.08159657 0.2825144 -0.19729292 0.14355272 -0.13019489 -0.16243896 -0.036406457 0.057468116
-0.079858184 -0.23859258 0.10890356 0.20657611 0.12278867 0.09611121 0.2505113 0.15443477
0.15087801 0.029253542 0.28387988 -0.10124366 0.17684391 0.17248037 -0.08989693 -0.21441546
-0.18363094 -0.08048904 -0.03627211 -0.12391932 0.0072462857 0.118759096 -0.19000629 -0.11400466
-0.2872551 0.11977598 -0.117250115 -0.25069973 -0.10491158 -0.043120384 0.27558964 -0.17822796

arith.constant1 f4 [64, 128]
00000000: 0688 b33d 7f91 0e3e b8ab d3bc ca03 f6bd
00000010: 0abc e0bd 9cfe 893d 509a 36bc 6afd 9f3d
00000020: 74ec 073d 0842 16bd f4b1 30be cfec 233e
00000030: a074 d23b 8d85 1f3e 38d2 c13c b8c6 b5bd
00000040: 6851 d93c 3d42 fabd e0cf d1bb 9575 063e
00000050: 2d55 2ebe 5029 843d a8f3 4b3d c0da 98bc
00000060: c86a 05be a932 06be e0ad 3d3c 67c5 1a3e
00000070: e016 4d3c 7d0c 19be 605d 8f3b be71 e53d
00000080: 0e79 fa3d 1fd1 9dbd cef9 7dbd 21d4 273e
00000090: c000 53bc 0c77 4c3d 8d6e 153e 60c8 aebc
000000a0: fece 27be ecea 9abd df90 19be 7e62 9e3d
000000b0: ee9b 9c3d 4e78 f3bd 27a5 273e 0018 f239
000000c0: f1d3 2bbe 4a70 bc3d 8d45 e1bd c3b8 253e
000000d0: f6d7 863d c841 41bd 1b59 0f3e d52e 343e
000000e0: b170 223e 0257 ff3d a447 643d 1482 363d
000000f0: 3e05 7bbd f6fd 11be 89d7 dfbd 869f 78bd
00000100: 9176 c3bd a7bd 023e 2144 2cbe c7fe 163e
00000110: 5257 d43d 2e26 d7bd 0182 25be 50d0 863d
00000120: 01dc c5bd 4005 0dbb c606 24be 3885 c4bc
00000130: a252 0fbe 247a 323d 1a88 fbbd 58c8 7d3d
00000140: 9f2c 123e 884e 1abe d008 0fbd 8cac 17be
00000150: ee85 f53d 4593 dcbd f6b9 9e3d 7a58 e73d
00000160: 19d5 133e ac7c 0bbe 9c42 583d 82bb a13d
00000170: a3d0 293e 66c2 b33d 4c50 713d 536d 143e
00000180: 0339 113e d699 b6bd b20b 12be caf7 8c3d
00000190: be19 8fbd add3 27be 00c5 7abc 4d32 1d3e
000001a0: a8be 303d d44f 36bd 3fd2 0abe 8000 1dbe
000001b0: 341d 76bd 03f5 2fbe 40a0 1e3c acbc e2bd
000001c0: 8537 1b3e b8a3 24be b910 213e bc33 debd
000001d0: 2c50 5a3d 0673 a73d 2e16 b63d 7a0e e7bd
000001e0: 9e92 f43d afb1 8fbd 650a b3bd 9379 18be
000001f0: db7f 303e 1d78 0abe d5ac 053e 689d cfbc
00000200: 92e7 f43d 5fa5 90bd 445f 1a3d 5cc9 5d3d
00000210: 1f0e f8bd f8b8 d0bc 34e8 e6bd f0ca f9bc
00000220: e912 173e 5c11 febd fcf7 6a3d 345f 5dbd
00000230: 717b 14be ae5f e73d fbb5 173e d835 833d
00000240: 8243 ea3d 06b6 9e3d c433 913d bd02 203e
00000250: 2db0 273e e098 f7bd 3090 f5bc 7b2e 073e
00000260: 4345 d5bd f0fd e6bc 68fd 2dbd 2e06 d73d
00000270: 4676 fbbd e412 703d a92a bfbd 3f2c 243e
00000280: 9856 fdbd ca17 e1bd dc2d 5ebd 9ece d13d
00000290: ae46 e1bd 2cdd 30be 7312 ecbd dd90 273e
000002a0: 7c59 513d b617 8a3d 203e f9bc a07a 9e3b
000002b0: b55d 1b3e 40a3 4c3d 7c57 123d 3438 0dbe
000002c0: fc73 fdbd f111 2bbe 05bd 303e 4868 e33c
000002d0: 606b d9bc 903e 3dbc 152f c7bd 4c0c 38bd
000002e0: e05d 75bc 60bf c93b e691 0abe b04c 3dbc
000002f0: 1a05 9c3d 40b4 c7bc 6b12 133e 0832 67bd
00000300: e2fa a93d 5027 883c c3a4 23be 9247 fdbd
00000310: 40fc febb 67e6 323e 9501 19be 9ccb 0bbd
00000320: c02b 91bb c278 2bbe d800 67bd 1873 043d
00000330: 0cd3 703d 1713 113e b682 a7bd 7a83 d23d
00000340: 1035 403c 0764 cfbd 031a 0cbe 42b9 c63d
00000350: e036 803b 710c b9bd c7f8 2fbe ce96 80bd
00000360: 4598 1c3e e27f d03d 7631 a73d fccc 803d
00000370: 50e6 0ebe 06df fa3d 00e4 7aba 54ec 243d
00000380: 4c4d 1bbe 69fc 1c3e d77d 1abe 916e 293e
00000390: 7a37 b23d 73ff 103e 848b 01be ec5e 5c3d
000003a0: f620 af3d e157 f0bd 2022 fc3b f11e 293e
000003b0: 90ea f63c 3689 f63d 0805 04be d944 143e
000003c0: f4f0 77bd 7044 b7bc 3932 2bbe ff29 223e
000003d0: 8b5e 183e 746d 4c3d 86a9 c73d 7370 98bd
000003e0: a960 1d3e 0195 e7bd d852 9dbc 52ae e0bd
000003f0: 00fe 9ab9 0dcf 0b3e 2886 a5bc fa07 c93d
0.08766179 0.1392269 -0.025838718 -0.120124415 -0.109733656 0.06738016 -0.011145189 0.07812007
0.033184484 -0.036684066 -0.17255384 0.16008304 0.006422594 0.1557829 0.02365981 -0.08875793
0.026528075 -0.12219665 -0.0064029545 0.13130791 -0.1702468 0.06453192 0.049792916 -0.018658996
-0.13029015 -0.13105263 0.0115771 0.15114366 0.012517661 -0.1494617 0.004375145 0.11203335
0.122301206 -0.07705902 -0.06200581 0.16389515 -0.012878597 0.04991822 0.14592953 -0.02133578
-0.16387555 -0.07564339 -0.1499667 0.0773363 0.07646929 -0.11888181 0.16371594 0.00046175718
-0.16780068 0.09201105 -0.10999594 0.16183762 0.0658416 -0.047181875 0.13998835 0.1759599
0.15863301 0.12467767 0.055732384 0.044557646 -0.061284296 -0.14257035 -0.10929782 -0.06069901
-0.09544099 0.12767659 -0.16822864 0.14745627 0.103682175 -0.10505329 -0.16162874 0.06582701
-0.09661103 -0.0021518022 -0.16018209 -0.023989305 -0.13996366 0.043573514 -0.12281819 0.06195864
0.14274834 -0.1506902 -0.034920514 -0.14811915 0.11988436 -0.10770277 0.07750313 0.112961724
0.14436759 -0.13621777 0.0527979 0.078970924 0.16583495 0.08777313 0.058914468 0.14494829
0.14181904 -0.089160606 -0.14262274 0.068831995 -0.06987332 -0.16389342 -0.0153057575 0.1535122
0.043150574 -0.044509724 -0.13556765 -0.15332222 -0.060086444 -0.17183308 0.009681761 -0.110711426
0.15157898 -0.16078079 0.15729035 -0.10849711 0.053299114 0.08176236 0.08890949 -0.11282058
0.119420275 -0.07016312 -0.08742217 -0.14890127 0.17236273 -0.13522382 0.13054211 -0.025343612
0.11958231 -0.07062792 0.03768851 0.05414711 -0.121120684 -0.025478825 -0.11274758 -0.030492276
0.14753307 -0.12405655 0.057365403 -0.05404587 -0.14500214 0.11297546 0.14815514 0.06406754
0.11438657 0.07749562 0.07089952 0.15626045 0.163758 -0.120897055 -0.02997598 0.13201325
-0.10413601 -0.028197259 -0.042477995 0.104992256 -0.12278418 0.058611766 -0.09334309 0.16032504
-0.12370032 -0.109908655 -0.054242954 0.10244487 -0.10999809 -0.1727187 -0.115269564 0.16363855
0.05111073 0.06742804 -0.030425131 0.0048363954 0.15172465 0.049960375 0.035727963 -0.13790971
-0.12375638 -0.16706063 0.17259605 0.027759686 -0.026540458 -0.011550561 -0.09725777 -0.044933602
-0.014975995 0.006156847 -0.13532218 -0.011553928 0.076181605 -0.024377942 0.14362495 -0.056444198
0.08299805 0.016620308 -0.1598082 -0.123671666 -0.0077815354 0.17470704 -0.1494201 -0.034129724
-0.0044302642 -0.16745284 -0.05639729 0.032336324 0.05879502 0.14167438 -0.08179228 0.102789834
0.011731401 -0.101265006 -0.13681798 0.09703304 0.0039127916 -0.09035576 -0.17184745 -0.06278764
0.15292461 0.10180642 0.08163731 0.06289098 -0.13955045 0.122495696 -0.0009570718 0.040264443
-0.15166205 0.15330662 -0.15087067 0.16546084 0.087019876 0.14159946 -0.12650877 0.053801462
0.08551209 -0.117355116 0.0076944977 0.1651571 0.030141145 0.1203789 -0.12892544 0.14479388
-0.060532525 -0.0223715 -0.16718377 0.15836333 0.14879815 0.04990907 0.09749131 -0.07443323
0.15368904 -0.11307717 -0.019204542 -0.10970749 -0.00029562414 0.13653202 -0.020205572 0.098159745

sequential_1/dense_1/MatMul f4 [128, 49]
00000000: 0ac3 8c3d 2a45 ed3d 1750 283e e15c 05be
00000010: b04b 25bd d22d fa3d 0d4b 9ebd 480f 9abd
00000020: 703b e73c 9ce6 2dbe f006 e53c 1c04 253d
00000030: 52d7 1abe 9e36 ca3d 1bbc 9dbd 5c62 e8bd
00000040: 1c0b 7bbd a8c3 22be 362b d4bd bd78 35be
00000050: 41ff 063e a7ab cabd 039a 3a3e 6068 6fbc
00000060: 988a 09bd aaa8 02be dd5f babd e660 ae3d
00000070: f60b d4bd 482f 77bd 20e6 34be dda8 97bd
00000080: 9a35 c33d d85f a4bc 9111 12be dad3 9b3d
00000090: 74e0 2d3d 5284 b13d 3f5c b2bd c0ce 033c
000000a0: 40c4 05bc db52 233e 429f 1abe 1c3f 343d
000000b0: d876 0c3d c0fb cc3b 4668 bd3d d81c 91bd
000000c0: fdb2 d7bd 6037 26be 74c0 283d d898 45bd
000000d0: 9696 eb3d 55ee 1c3e 1e53 943d 003b 173d
000000e0: 2885 f6bc ccf4 02bd 801c 47bb 3da4 91bd
000000f0: ad09 9bbd fe1e 8abd 3da3 92bd 8026 fabb
00000100: 927a b5bd d013 38be c288 ef3d 9ec5 a23d
00000110: 35b8 22be 2000 cabd 8719 233e 0b2c 2f3e
00000120: fe94 3abe 6086 5abc a4d6 6b3d 80b8 0ebd
00000130: 155b 053e 7af6 d63d c6ab 9a3d da80 b73d
00000140: c8de 85bd 4a44 0fbe 4f9f f6bd 50ee 77bc
00000150: 205c 303c fb85 afbd 2da8 18be 78ae f43c
00000160: e853 c63c 03a4 163e 000d bfbb 80d5 3fbc
00000170: 60e2 b8bd 58c0 0f3d 8e8f 883d 406d da3c
00000180: e10a 323e 77c0 0e3e 35ec 203e 725b ebbd
00000190: 308f 9f3c 9c62 5cbd d40a 1bbe 3115 0ebe
000001a0: 1064 70bc 0657 c63d 287d b93c 645f 90bd
000001b0: 28d2 f2bc 20e2 e03b 004b 32bc 566f a73d
000001c0: 7df4 b4bd 3816 c63c 618c 2d3e 88df 19bd
000001d0: 0d48 133e 71eb 2fbe e869 9fbc 5e64 813d
000001e0: cffd 2b3e ae8b e93d 80d3 7ebb 00b8 b5b8
000001f0: 8c21 65bd c8dc 4abd 7806 25be aa9a a83d
00000200: ea1a e53d faca 983d 9c35 3e3d c479 10be
00000210: ce0c d83d e636 993d 0839 303d 7089 143c
00000220: 5da3 3abe b2a4 f63d e89c 52bd 4907 073e
00000230: 472e e6bd 6ac2 e53d 9ef1 d63d e685 f43d
00000240: c4e3 313d 5cae 053d f01a 303c ca0f 00be
00000250: 971a 313e 803b 96ba f43f 14be 1efc d83d
00000260: 9525 293e e258 813d 9d0e 9ebd 0f21 1c3e
00000270: 5f12 09be cac7 b73d 209d 1e3d 4a2a f5bd
00000280: cc71 393d 039a 2a3e b285 f23d 1ebd c03d
00000290: 3f8d dbbd fa95 9e3d 922d 06be 2e60 30be
000002a0: 6b00 aebd ac8b 743d b58f 003e 805a c63b
000002b0: ad16 363e a354 043e 6972 93bd 107d 20bd
000002c0: 808d bd3a 27fd 033e 78e6 a4bd 4fd1 08be
000002d0: 0603 f63d 7b99 0c3e 4c80 01be c280 e93d
000002e0: 7671 df3d c234 d23d ba33 8d3d 7529 323e
000002f0: 17b6 1fbe 48fb b03c 569e c3bd c0bc a2bb
00000300: 8e6f a03d ea2c e03d 2f59 333e a273 fa3d
00000310: 8085 e43a 0e4f 7cbd f6ca fd3d d102 0e3e
00000320: d696 ea3d 4642 a7bd e76e 96bd 0d26 0e3e
00000330: b3b8 c0bd 781a e7bc 400b 34be 52b9 97bd
00000340: cd5b 223e ffbb 013e dcd8 1dbd 9d48 053e
00000350: 14f5 513d 6085 d1bc c096 3bbe 82fa e23d
00000360: b912 2e3e 8037 c13a 16d4 b13d 10df babd
00000370: 6544 393e 7c53 553d 1a44 22be 52d5 28be
00000380: 7bdc 0f3e d208 0dbe feb8 08be 753f 39be
00000390: 7658 ab3d 4e05 ccbd 0014 26bc 9bb9 173e
000003a0: 2ef3 e13d 3c35 7c3d 9a08 38be f984 123e
000003b0: cc0b 823d 2352 173e f411 29be 7892 8fbd
000003c0: 1e4a e13d 4e8a 9f3d 2e97 b73d ca76 8b3d
000003d0: 26df a83d 14e3 2dbd 1896 0bbe ba6c f73d
000003e0: 06d6 f1bd d016 dbbd f602 ffbd 8c42 02be
000003f0: 8c8e 433d d8b9 8cbc 9eb0 2dbe 7735 81bd
0.06873138 0.115854576 0.16436802 -0.13023712 -0.040355384 0.12215771 -0.077291586 -0.07522446
0.028226584 -0.16982502 0.02795741 0.040287122 -0.151212 0.09873699 -0.07701894 -0.113468856
-0.06128989 -0.1589495 -0.10359804 -0.17721839 0.13183309 -0.09896021 0.18222813 -0.014612287
-0.03357944 -0.12759653 -0.09100316 0.08514576 -0.10353844 -0.060347825 -0.1766591 -0.07405255
0.09531708 -0.020065233 -0.14264514 0.07608767 0.042450383 0.08667816 -0.08709001 0.0080448985
-0.008164465 0.15949576 -0.15099815 0.0440055 0.034293026 0.006255597 0.09248404 -0.0708558
-0.10532186 -0.16232061 0.041199163 -0.048241466 0.11503331 0.15325291 0.07242416 0.0369215
-0.03009279 -0.031971738 -0.0030381978 -0.07111404 -0.07570205 -0.067441925 -0.071600415 -0.007633984
-0.08861269 -0.17976308 0.11696006 0.07947849 -0.15890582 -0.09863305 0.15927707 0.17106645
-0.18220899 -0.013337702 0.057577744 -0.03484392 0.13023026 0.104962304 0.075522944 0.08960123
-0.06536633 -0.13990894 -0.120421045 -0.015132502 0.010764152 -0.085704766 -0.14907904 0.02986835
0.024209931 0.14711003 -0.005830407 -0.011708617 -0.090275526 0.035095543 0.06668006 0.026663423
0.17386962 0.13940607 0.15715106 -0.11492051 0.019477457 -0.05380498 -0.1514085 -0.13875271
-0.014672294 0.09684567 0.022642687 -0.07049444 -0.029641226 0.0068628937 -0.010882139 0.081755325
-0.08835695 0.024180517 0.16948082 -0.03756669 0.14382954 -0.17179658 -0.01945968 0.06317972
0.16796039 0.11403595 -0.0038883388 -8.665025e-05 -0.055940196 -0.04952696 -0.16115749 0.08232625
0.11186774 0.0746059 0.046437845 -0.1410895 0.10549317 0.07481174 0.04302314 0.009065971
-0.1822638 0.12043132 -0.05141917 0.13186373 -0.112392955 0.11218722 0.104953036 0.119396016
0.043430105 0.032636985 0.01074861 -0.12506023 0.172953 -0.0011461824 -0.14477521 0.105949625
0.16518243 0.06315781 -0.07717631 0.15246986 -0.13385914 0.089736536 0.038724065 -0.119709566
0.04527454 0.16660313 0.118419066 0.09411071 -0.107203 0.077434495 -0.13103321 -0.1722419
-0.084961735 0.059703514 0.1255482 0.006053269 0.17782088 0.12922911 -0.071995564 -0.03918177
0.0014461726 0.12889539 -0.08051771 -0.13361095 0.120122954 0.13730423 -0.12646598 0.11401512
0.10910313 0.10263969 0.06894632 0.17398627 -0.15596806 0.021604195 -0.095516846 -0.0049663484
0.07833777 0.10946067 0.1751449 0.122290865 0.0017434806 -0.06159883 0.12392227 0.13868262
0.11454551 -0.081669375 -0.07345372 0.13881703 -0.094102286 -0.028210863 -0.17582417 -0.07408394
0.15855332 0.12669371 -0.03853689 0.13015981 0.051259115 -0.025576293 -0.18319225 0.11082937
0.1699933 0.0014741272 0.0868303 -0.09124577 0.18092497 0.05208157 -0.15846291 -0.16487625
0.1404895 -0.13772896 -0.13351819 -0.18090613 0.08366482 -0.09961949 -0.010136604 0.14816897
0.11032711 0.061574206 -0.17972031 0.14308538 0.06349906 0.14777426 -0.16510755 -0.070103586
0.11000465 0.077900514 0.08964382 0.068097666 0.08245687 -0.042452887 -0.13631475 0.12081285
-0.118084 -0.106977105 -0.12451737 -0.12720698 0.047743365 -0.017178461 -0.16961905 -0.06309026
